#map = affine_map<(d0, d1, d2, d3) -> (d0, d1, d2, d3)>
#map1 = affine_map<(d0, d1, d2, d3) -> (d1)>
#map2 = affine_map<(d0, d1, d2, d3) -> (0, d1, d2, d3)>
module attributes {torch.debug_module_name = "DepthwiseSeparableConvBlock"} {
  ml_program.global private mutable @global_seed(dense<0> : tensor<i64>) : tensor<i64>
  func.func @forward(%arg0: tensor<1x8x112x112xf32>) -> tensor<1x8x112x112xf32> {
    %cst = arith.constant dense<0.000000e+00> : tensor<8xf32>
    %cst_0 = arith.constant dense<1.000000e+00> : tensor<8xf32>
    %cst_1 = arith.constant dense<[[[[… > : tensor<8x8x1x1xf32>
    %cst_2 = arith.constant dense<[[[[… > : tensor<8x1x3x3xf32>
    %false = arith.constant false
    %cst_3 = arith.constant 0.000000e+00 : f32
    %cst_4 = arith.constant 1.000000e-05 : f64
    %c0 = arith.constant 0 : index
    %c1 = arith.constant 1 : index
    %padded = tensor.pad %arg0 low[0, 0, 1, 1] high[0, 0, 1, 1] {
    ^bb0(%arg1: index, %arg2: index, %arg3: index, %arg4: index):
      tensor.yield %cst_3 : f32
    } : tensor<1x8x112x112xf32> to tensor<1x8x114x114xf32>
    %0 = tensor.empty() : tensor<1x8x112x112xf32>
    %1 = linalg.fill ins(%cst_3 : f32) outs(%0 : tensor<1x8x112x112xf32>) -> tensor<1x8x112x112xf32>
    %collapsed = tensor.collapse_shape %cst_2 [[0, 1], [2], [3]] : tensor<8x1x3x3xf32> into tensor<8x3x3xf32>
    %2 = linalg.depthwise_conv_2d_nchw_chw {dilations = dense<1> : vector<2xi64>, strides = dense<1> : vector<2xi64>} ins(%padded, %collapsed : tensor<1x8x114x114xf32>, tensor<8x3x3xf32>) outs(%1 : tensor<1x8x112x112xf32>) -> tensor<1x8x112x112xf32>
    %3 = linalg.conv_2d_nchw_fchw {dilations = dense<1> : vector<2xi64>, strides = dense<1> : vector<2xi64>} ins(%2, %cst_1 : tensor<1x8x112x112xf32>, tensor<8x8x1x1xf32>) outs(%1 : tensor<1x8x112x112xf32>) -> tensor<1x8x112x112xf32>
    %4 = arith.cmpi eq, %false, %false : i1
    cf.assert %4, "training is not supported for now"
    %5 = linalg.generic {indexing_maps = [#map, #map1, #map1, #map1, #map1, #map], iterator_types = ["parallel", "parallel", "parallel", "parallel"]} ins(%3, %cst_0, %cst, %cst, %cst_0 : tensor<1x8x112x112xf32>, tensor<8xf32>, tensor<8xf32>, tensor<8xf32>, tensor<8xf32>) outs(%3 : tensor<1x8x112x112xf32>) {
    ^bb0(%in: f32, %in_5: f32, %in_6: f32, %in_7: f32, %in_8: f32, %out: f32):
      %7 = arith.truncf %cst_4 : f64 to f32
      %8 = arith.addf %in_8, %7 : f32
      %9 = math.rsqrt %8 : f32
      %10 = arith.subf %in, %in_7 : f32
      %11 = arith.mulf %10, %9 : f32
      %12 = arith.mulf %11, %in_5 : f32
      %13 = arith.addf %12, %in_6 : f32
      linalg.yield %13 : f32
    } -> tensor<1x8x112x112xf32>
    %6 = linalg.generic {indexing_maps = [#map2, #map], iterator_types = ["parallel", "parallel", "parallel", "parallel"]} ins(%5 : tensor<1x8x112x112xf32>) outs(%0 : tensor<1x8x112x112xf32>) {
    ^bb0(%in: f32, %out: f32):
      %7 = arith.cmpf ugt, %in, %cst_3 : f32
      %8 = arith.select %7, %in, %cst_3 : f32
      linalg.yield %8 : f32
    } -> tensor<1x8x112x112xf32>
    return %6 : tensor<1x8x112x112xf32>
  }
}

