module attributes {torch.debug_module_name = "Autoencoder"} {
  func.func private @forward(memref<32x784xf32>, memref<256xf32> {builtin.dense_resource = dense_resource<weight> : memref<256xf32>}, memref<256x784xf32> {builtin.dense_resource = dense_resource<weight_1> : memref<256x784xf32>}, memref<128xf32> {builtin.dense_resource = dense_resource<weight_2> : memref<128xf32>}, memref<128x256xf32> {builtin.dense_resource = dense_resource<weight_3> : memref<128x256xf32>}, memref<64xf32> {builtin.dense_resource = dense_resource<weight_4> : memref<64xf32>}, memref<64x128xf32> {builtin.dense_resource = dense_resource<weight_5> : memref<64x128xf32>}, memref<128xf32> {builtin.dense_resource = dense_resource<weight_6> : memref<128xf32>}, memref<128x64xf32> {builtin.dense_resource = dense_resource<weight_7> : memref<128x64xf32>}, memref<256xf32> {builtin.dense_resource = dense_resource<weight_8> : memref<256xf32>}, memref<256x128xf32> {builtin.dense_resource = dense_resource<weight_9> : memref<256x128xf32>}, memref<784xf32> {builtin.dense_resource = dense_resource<weight_10> : memref<784xf32>}, memref<784x256xf32> {builtin.dense_resource = dense_resource<weight_11> : memref<784x256xf32>}, memref<32x784xf32>)
  func.func @main() -> i32 {
    %cst = arith.constant dense_resource<input_0> : memref<32x784xf32>
    %cst_0 = arith.constant dense_resource<weight> : memref<256xf32>
    %cst_1 = arith.constant dense_resource<weight_1> : memref<256x784xf32>
    %cst_2 = arith.constant dense_resource<weight_2> : memref<128xf32>
    %cst_3 = arith.constant dense_resource<weight_3> : memref<128x256xf32>
    %cst_4 = arith.constant dense_resource<weight_4> : memref<64xf32>
    %cst_5 = arith.constant dense_resource<weight_5> : memref<64x128xf32>
    %cst_6 = arith.constant dense_resource<weight_6> : memref<128xf32>
    %cst_7 = arith.constant dense_resource<weight_7> : memref<128x64xf32>
    %cst_8 = arith.constant dense_resource<weight_8> : memref<256xf32>
    %cst_9 = arith.constant dense_resource<weight_9> : memref<256x128xf32>
    %cst_10 = arith.constant dense_resource<weight_10> : memref<784xf32>
    %cst_11 = arith.constant dense_resource<weight_11> : memref<784x256xf32>
    %alloc = memref.alloc() : memref<32x784xf32>
    call @forward(%cst, %cst_0, %cst_1, %cst_2, %cst_3, %cst_4, %cst_5, %cst_6, %cst_7, %cst_8, %cst_9, %cst_10, %cst_11, %alloc) : (memref<32x784xf32>, memref<256xf32>, memref<256x784xf32>, memref<128xf32>, memref<128x256xf32>, memref<64xf32>, memref<64x128xf32>, memref<128xf32>, memref<128x64xf32>, memref<256xf32>, memref<256x128xf32>, memref<784xf32>, memref<784x256xf32>, memref<32x784xf32>) -> ()
    %cst_12 = arith.constant dense<true> : memref<1xi1>
    %cst_13 = arith.constant dense_resource<output_0> : memref<32x784xf32>
    affine.for %arg0 = 0 to 32 {
      affine.for %arg1 = 0 to 784 {
        %1 = affine.load %alloc[%arg0, %arg1] : memref<32x784xf32>
        %2 = affine.load %cst_13[%arg0, %arg1] : memref<32x784xf32>
        %3 = arith.subf %1, %2 : f32
        %4 = arith.subf %2, %1 : f32
        %cst_14 = arith.constant 1.000000e-01 : f32
        %5 = arith.cmpf ugt, %3, %cst_14 : f32
        %6 = arith.cmpf ugt, %4, %cst_14 : f32
        %7 = arith.ori %5, %6 : i1
        scf.if %7 {
          %c0_15 = arith.constant 0 : index
          %false = arith.constant false
          affine.store %false, %cst_12[%c0_15] : memref<1xi1>
        }
      }
    }
    %c0 = arith.constant 0 : index
    %0 = affine.load %cst_12[%c0] : memref<1xi1>
    cf.assert %0, "Error!"
    %c0_i32 = arith.constant 0 : i32
    return %c0_i32 : i32
  }
}

{-#
  dialect_resources: {
    builtin: {
      weight: "…",
      weight_1: "…",
      weight_2: "…",
      weight_3: "…",
      weight_4: "…",
      weight_5: "…",
      weight_6: "…",
      weight_7: "…",
      weight_8: "…",
      weight_9: "…",
      weight_10: "…",
      weight_11: "…",
      input_0: "0x00000000",
      output_0: "0x00000000"
    }
  }
#-}

