module attributes {torch.debug_module_name = "ResidualBlock"} {
  func.func private @forward(memref<1x16x56x56xf32>, memref<16x16x3x3xf32> {builtin.dense_resource = dense_resource<weight> : memref<16x16x3x3xf32>}, memref<16x16x3x3xf32> {builtin.dense_resource = dense_resource<weight_1> : memref<16x16x3x3xf32>}, memref<1x16x56x56xf32>)
  func.func @main() -> i32 {
    %cst = arith.constant dense_resource<input_0> : memref<1x16x56x56xf32>
    %cst_0 = arith.constant dense_resource<weight> : memref<16x16x3x3xf32>
    %cst_1 = arith.constant dense_resource<weight_1> : memref<16x16x3x3xf32>
    %alloc = memref.alloc() : memref<1x16x56x56xf32>
    call @forward(%cst, %cst_0, %cst_1, %alloc) : (memref<1x16x56x56xf32>, memref<16x16x3x3xf32>, memref<16x16x3x3xf32>, memref<1x16x56x56xf32>) -> ()
    %cst_2 = arith.constant dense<true> : memref<1xi1>
    %cst_3 = arith.constant dense_resource<output_0> : memref<1x16x56x56xf32>
    affine.for %arg0 = 0 to 1 {
      affine.for %arg1 = 0 to 16 {
        affine.for %arg2 = 0 to 56 {
          affine.for %arg3 = 0 to 56 {
            %1 = affine.load %alloc[%arg0, %arg1, %arg2, %arg3] : memref<1x16x56x56xf32>
            %2 = affine.load %cst_3[%arg0, %arg1, %arg2, %arg3] : memref<1x16x56x56xf32>
            %3 = arith.subf %1, %2 : f32
            %4 = arith.subf %2, %1 : f32
            %cst_4 = arith.constant 0.00999999977 : f32
            %5 = arith.cmpf ugt, %3, %cst_4 : f32
            %6 = arith.cmpf ugt, %4, %cst_4 : f32
            %7 = arith.ori %5, %6 : i1
            scf.if %7 {
              %c0_5 = arith.constant 0 : index
              %false = arith.constant false
              affine.store %false, %cst_2[%c0_5] : memref<1xi1>
            }
          }
        }
      }
    }
    %c0 = arith.constant 0 : index
    %0 = affine.load %cst_2[%c0] : memref<1xi1>
    cf.assert %0, "Error!"
    %c0_i32 = arith.constant 0 : i32
    return %c0_i32 : i32
  }
}

{-#
  dialect_resources: {
    builtin: {
      weight: "…",
      weight_1: "…",
      input_0: "0x00000000",
      output_0: "0x00000000"
    }
  }
#-}

