#map = affine_map<(d0, d1) -> (d0, d1)>
#map1 = affine_map<(d0, d1) -> (d1, d0)>
#map2 = affine_map<(d0, d1, d2) -> (0, d1, d2)>
#map3 = affine_map<(d0, d1, d2) -> (d0, d1, d2)>
#map4 = affine_map<(d0, d1, d2) -> (d1, d2)>
#map5 = affine_map<(d0, d1, d2) -> (d2)>
module attributes {torch.debug_module_name = "FeedForward"} {
  ml_program.global private mutable @global_seed(dense<0> : tensor<i64>) : tensor<i64>
  func.func @forward(%arg0: tensor<1x512x128xf32>) -> tensor<1x512x128xf32> {
    %cst = arith.constant dense<"…"> : tensor<128x256xf32>
    %cst_0 = arith.constant dense<"…"> : tensor<128xf32>
    %cst_1 = arith.constant dense<"…"> : tensor<256x128xf32>
    %cst_2 = arith.constant dense<"…"> : tensor<256xf32>
    %cst_3 = arith.constant 0.000000e+00 : f32
    %0 = tensor.empty() : tensor<128x256xf32>
    %1 = linalg.generic {indexing_maps = [#map, #map1], iterator_types = ["parallel", "parallel"]} ins(%cst_1 : tensor<256x128xf32>) outs(%0 : tensor<128x256xf32>) {
    ^bb0(%in: f32, %out: f32):
      linalg.yield %in : f32
    } -> tensor<128x256xf32>
    %2 = tensor.empty() : tensor<1x512x128xf32>
    %3 = linalg.generic {indexing_maps = [#map2, #map3], iterator_types = ["parallel", "parallel", "parallel"]} ins(%arg0 : tensor<1x512x128xf32>) outs(%2 : tensor<1x512x128xf32>) {
    ^bb0(%in: f32, %out: f32):
      linalg.yield %in : f32
    } -> tensor<1x512x128xf32>
    %4 = tensor.empty() : tensor<1x128x256xf32>
    %5 = linalg.generic {indexing_maps = [#map4, #map3], iterator_types = ["parallel", "parallel", "parallel"]} ins(%1 : tensor<128x256xf32>) outs(%4 : tensor<1x128x256xf32>) {
    ^bb0(%in: f32, %out: f32):
      linalg.yield %in : f32
    } -> tensor<1x128x256xf32>
    %6 = tensor.empty() : tensor<1x512x256xf32>
    %7 = linalg.fill ins(%cst_3 : f32) outs(%6 : tensor<1x512x256xf32>) -> tensor<1x512x256xf32>
    %8 = linalg.batch_matmul ins(%3, %5 : tensor<1x512x128xf32>, tensor<1x128x256xf32>) outs(%7 : tensor<1x512x256xf32>) -> tensor<1x512x256xf32>
    %9 = linalg.generic {indexing_maps = [#map2, #map5, #map3], iterator_types = ["parallel", "parallel", "parallel"]} ins(%8, %cst_2 : tensor<1x512x256xf32>, tensor<256xf32>) outs(%6 : tensor<1x512x256xf32>) {
    ^bb0(%in: f32, %in_4: f32, %out: f32):
      %19 = arith.addf %in, %in_4 : f32
      linalg.yield %19 : f32
    } -> tensor<1x512x256xf32>
    %10 = linalg.generic {indexing_maps = [#map2, #map3], iterator_types = ["parallel", "parallel", "parallel"]} ins(%9 : tensor<1x512x256xf32>) outs(%6 : tensor<1x512x256xf32>) {
    ^bb0(%in: f32, %out: f32):
      %19 = arith.cmpf ugt, %in, %cst_3 : f32
      %20 = arith.select %19, %in, %cst_3 : f32
      linalg.yield %20 : f32
    } -> tensor<1x512x256xf32>
    %11 = tensor.empty() : tensor<256x128xf32>
    %12 = linalg.generic {indexing_maps = [#map, #map1], iterator_types = ["parallel", "parallel"]} ins(%cst : tensor<128x256xf32>) outs(%11 : tensor<256x128xf32>) {
    ^bb0(%in: f32, %out: f32):
      linalg.yield %in : f32
    } -> tensor<256x128xf32>
    %13 = linalg.generic {indexing_maps = [#map2, #map3], iterator_types = ["parallel", "parallel", "parallel"]} ins(%10 : tensor<1x512x256xf32>) outs(%6 : tensor<1x512x256xf32>) {
    ^bb0(%in: f32, %out: f32):
      linalg.yield %in : f32
    } -> tensor<1x512x256xf32>
    %14 = tensor.empty() : tensor<1x256x128xf32>
    %15 = linalg.generic {indexing_maps = [#map4, #map3], iterator_types = ["parallel", "parallel", "parallel"]} ins(%12 : tensor<256x128xf32>) outs(%14 : tensor<1x256x128xf32>) {
    ^bb0(%in: f32, %out: f32):
      linalg.yield %in : f32
    } -> tensor<1x256x128xf32>
    %16 = linalg.fill ins(%cst_3 : f32) outs(%2 : tensor<1x512x128xf32>) -> tensor<1x512x128xf32>
    %17 = linalg.batch_matmul ins(%13, %15 : tensor<1x512x256xf32>, tensor<1x256x128xf32>) outs(%16 : tensor<1x512x128xf32>) -> tensor<1x512x128xf32>
    %18 = linalg.generic {indexing_maps = [#map2, #map5, #map3], iterator_types = ["parallel", "parallel", "parallel"]} ins(%17, %cst_0 : tensor<1x512x128xf32>, tensor<128xf32>) outs(%2 : tensor<1x512x128xf32>) {
    ^bb0(%in: f32, %in_4: f32, %out: f32):
      %19 = arith.addf %in, %in_4 : f32
      linalg.yield %19 : f32
    } -> tensor<1x512x128xf32>
    return %18 : tensor<1x512x128xf32>
  }
}

