#map = affine_map<(d0, d1, d2, d3) -> (d0, d1, d2, d3)>
#map1 = affine_map<(d0, d1, d2, d3) -> (d1)>
#map2 = affine_map<(d0, d1, d2, d3) -> (0, d1, d2, d3)>
module attributes {torch.debug_module_name = "ResidualBlock"} {
  ml_program.global private mutable @global_seed(dense<0> : tensor<i64>) : tensor<i64>
  func.func @forward(%arg0: tensor<1x16x56x56xf32>) -> tensor<1x16x56x56xf32> {
    %cst = arith.constant dense<"…"> : tensor<16x16x3x3xf32>
    %cst_0 = arith.constant dense<0.000000e+00> : tensor<16xf32>
    %cst_1 = arith.constant dense<1.000000e+00> : tensor<16xf32>
    %cst_2 = arith.constant dense<"…"> : tensor<16x16x3x3xf32>
    %false = arith.constant false
    %cst_3 = arith.constant 0.000000e+00 : f32
    %cst_4 = arith.constant 1.000000e-05 : f64
    %c0 = arith.constant 0 : index
    %c1 = arith.constant 1 : index
    %padded = tensor.pad %arg0 low[0, 0, 1, 1] high[0, 0, 1, 1] {
    ^bb0(%arg1: index, %arg2: index, %arg3: index, %arg4: index):
      tensor.yield %cst_3 : f32
    } : tensor<1x16x56x56xf32> to tensor<1x16x58x58xf32>
    %0 = tensor.empty() : tensor<1x16x56x56xf32>
    %1 = linalg.fill ins(%cst_3 : f32) outs(%0 : tensor<1x16x56x56xf32>) -> tensor<1x16x56x56xf32>
    %2 = linalg.conv_2d_nchw_fchw {dilations = dense<1> : vector<2xi64>, strides = dense<1> : vector<2xi64>} ins(%padded, %cst_2 : tensor<1x16x58x58xf32>, tensor<16x16x3x3xf32>) outs(%1 : tensor<1x16x56x56xf32>) -> tensor<1x16x56x56xf32>
    %3 = arith.cmpi eq, %false, %false : i1
    cf.assert %3, "training is not supported for now"
    %4 = linalg.generic {indexing_maps = [#map, #map1, #map1, #map1, #map1, #map], iterator_types = ["parallel", "parallel", "parallel", "parallel"]} ins(%2, %cst_1, %cst_0, %cst_0, %cst_1 : tensor<1x16x56x56xf32>, tensor<16xf32>, tensor<16xf32>, tensor<16xf32>, tensor<16xf32>) outs(%2 : tensor<1x16x56x56xf32>) {
    ^bb0(%in: f32, %in_6: f32, %in_7: f32, %in_8: f32, %in_9: f32, %out: f32):
      %10 = arith.truncf %cst_4 : f64 to f32
      %11 = arith.addf %in_9, %10 : f32
      %12 = math.rsqrt %11 : f32
      %13 = arith.subf %in, %in_8 : f32
      %14 = arith.mulf %13, %12 : f32
      %15 = arith.mulf %14, %in_6 : f32
      %16 = arith.addf %15, %in_7 : f32
      linalg.yield %16 : f32
    } -> tensor<1x16x56x56xf32>
    %5 = linalg.generic {indexing_maps = [#map2, #map], iterator_types = ["parallel", "parallel", "parallel", "parallel"]} ins(%4 : tensor<1x16x56x56xf32>) outs(%0 : tensor<1x16x56x56xf32>) {
    ^bb0(%in: f32, %out: f32):
      %10 = arith.cmpf ugt, %in, %cst_3 : f32
      %11 = arith.select %10, %in, %cst_3 : f32
      linalg.yield %11 : f32
    } -> tensor<1x16x56x56xf32>
    %padded_5 = tensor.pad %5 low[0, 0, 1, 1] high[0, 0, 1, 1] {
    ^bb0(%arg1: index, %arg2: index, %arg3: index, %arg4: index):
      tensor.yield %cst_3 : f32
    } : tensor<1x16x56x56xf32> to tensor<1x16x58x58xf32>
    %6 = linalg.conv_2d_nchw_fchw {dilations = dense<1> : vector<2xi64>, strides = dense<1> : vector<2xi64>} ins(%padded_5, %cst : tensor<1x16x58x58xf32>, tensor<16x16x3x3xf32>) outs(%1 : tensor<1x16x56x56xf32>) -> tensor<1x16x56x56xf32>
    cf.assert %3, "training is not supported for now"
    %7 = linalg.generic {indexing_maps = [#map, #map1, #map1, #map1, #map1, #map], iterator_types = ["parallel", "parallel", "parallel", "parallel"]} ins(%6, %cst_1, %cst_0, %cst_0, %cst_1 : tensor<1x16x56x56xf32>, tensor<16xf32>, tensor<16xf32>, tensor<16xf32>, tensor<16xf32>) outs(%6 : tensor<1x16x56x56xf32>) {
    ^bb0(%in: f32, %in_6: f32, %in_7: f32, %in_8: f32, %in_9: f32, %out: f32):
      %10 = arith.truncf %cst_4 : f64 to f32
      %11 = arith.addf %in_9, %10 : f32
      %12 = math.rsqrt %11 : f32
      %13 = arith.subf %in, %in_8 : f32
      %14 = arith.mulf %13, %12 : f32
      %15 = arith.mulf %14, %in_6 : f32
      %16 = arith.addf %15, %in_7 : f32
      linalg.yield %16 : f32
    } -> tensor<1x16x56x56xf32>
    %8 = linalg.generic {indexing_maps = [#map2, #map2, #map], iterator_types = ["parallel", "parallel", "parallel", "parallel"]} ins(%7, %arg0 : tensor<1x16x56x56xf32>, tensor<1x16x56x56xf32>) outs(%0 : tensor<1x16x56x56xf32>) {
    ^bb0(%in: f32, %in_6: f32, %out: f32):
      %10 = arith.addf %in, %in_6 : f32
      linalg.yield %10 : f32
    } -> tensor<1x16x56x56xf32>
    %9 = linalg.generic {indexing_maps = [#map2, #map], iterator_types = ["parallel", "parallel", "parallel", "parallel"]} ins(%8 : tensor<1x16x56x56xf32>) outs(%0 : tensor<1x16x56x56xf32>) {
    ^bb0(%in: f32, %out: f32):
      %10 = arith.cmpf ugt, %in, %cst_3 : f32
      %11 = arith.select %10, %in, %cst_3 : f32
      linalg.yield %11 : f32
    } -> tensor<1x16x56x56xf32>
    return %9 : tensor<1x16x56x56xf32>
  }
}

